finetune_models/trained_network_att.pt (torch, 721293 bytes, 35 tensors)

m_frontend.0.lfcc_fb f4 [257, 20]
0.0 0.0 0.0 0.0 0.0 0.0 0.0 0.0
0.0 0.0 0.0 0.0 0.0 0.0 0.0 0.0
0.0 0.0 0.0 0.0 0.08203125 0.0 0.0 0.0
0.0 0.0 0.0 0.0 0.0 0.0 0.0 0.0
0.0 0.0 0.0 0.0 0.0 0.0 0.0 0.0
0.1640625 0.0 0.0 0.0 0.0 0.0 0.0 0.0
0.0 0.0 0.0 0.0 0.0 0.0 0.0 0.0
0.0 0.0 0.0 0.0 0.24609374 0.0 0.0 0.0
0.0 0.0 0.0 0.0 0.0 0.0 0.0 0.0
0.0 0.0 0.0 0.0 0.0 0.0 0.0 0.0
0.328125 0.0 0.0 0.0 0.0 0.0 0.0 0.0
0.0 0.0 0.0 0.0 0.0 0.0 0.0 0.0
0.0 0.0 0.0 0.0 0.41015625 0.0 0.0 0.0
0.0 0.0 0.0 0.0 0.0 0.0 0.0 0.0
0.0 0.0 0.0 0.0 0.0 0.0 0.0 0.0
0.49218747 0.0 0.0 0.0 0.0 0.0 0.0 0.0
0.0 0.0 0.0 0.0 0.0 0.0 0.0 0.0
0.0 0.0 0.0 0.0 0.57421875 0.0 0.0 0.0
0.0 0.0 0.0 0.0 0.0 0.0 0.0 0.0
0.0 0.0 0.0 0.0 0.0 0.0 0.0 0.0
0.65625 0.0 0.0 0.0 0.0 0.0 0.0 0.0
0.0 0.0 0.0 0.0 0.0 0.0 0.0 0.0
0.0 0.0 0.0 0.0 0.73828125 0.0 0.0 0.0
0.0 0.0 0.0 0.0 0.0 0.0 0.0 0.0
0.0 0.0 0.0 0.0 0.0 0.0 0.0 0.0
0.8203125 0.0 0.0 0.0 0.0 0.0 0.0 0.0
0.0 0.0 0.0 0.0 0.0 0.0 0.0 0.0
0.0 0.0 0.0 0.0 0.90234375 0.0 0.0 0.0
0.0 0.0 0.0 0.0 0.0 0.0 0.0 0.0
0.0 0.0 0.0 0.0 0.0 0.0 0.0 0.0
0.98437494 0.0 0.0 0.0 0.0 0.0 0.0 0.0
0.0 0.0 0.0 0.0 0.0 0.0 0.0 0.0
00000000: 0000 0000 0000 0000 0000 0000 0000 0000
00000010: 0000 0000 0000 0000 0000 0000 0000 0000
00000020: 0000 0000 0000 0000 0000 0000 0000 0000
00000030: 0000 0000 0000 0000 0000 0000 0000 0000
00000040: 0000 0000 0000 0000 0000 0000 0000 0000
00000050: 0000 a83d 0000 0000 0000 0000 0000 0000
00000060: 0000 0000 0000 0000 0000 0000 0000 0000
00000070: 0000 0000 0000 0000 0000 0000 0000 0000
00000080: 0000 0000 0000 0000 0000 0000 0000 0000
00000090: 0000 0000 0000 0000 0000 0000 0000 0000
000000a0: 0000 283e 0000 0000 0000 0000 0000 0000
000000b0: 0000 0000 0000 0000 0000 0000 0000 0000
000000c0: 0000 0000 0000 0000 0000 0000 0000 0000
000000d0: 0000 0000 0000 0000 0000 0000 0000 0000
000000e0: 0000 0000 0000 0000 0000 0000 0000 0000
000000f0: ffff 7b3e 0000 0000 0000 0000 0000 0000
00000100: 0000 0000 0000 0000 0000 0000 0000 0000
00000110: 0000 0000 0000 0000 0000 0000 0000 0000
00000120: 0000 0000 0000 0000 0000 0000 0000 0000
00000130: 0000 0000 0000 0000 0000 0000 0000 0000
00000140: 0000 a83e 0000 0000 0000 0000 0000 0000
00000150: 0000 0000 0000 0000 0000 0000 0000 0000
00000160: 0000 0000 0000 0000 0000 0000 0000 0000
00000170: 0000 0000 0000 0000 0000 0000 0000 0000
00000180: 0000 0000 0000 0000 0000 0000 0000 0000
00000190: 0000 d23e 0000 0000 0000 0000 0000 0000
000001a0: 0000 0000 0000 0000 0000 0000 0000 0000
000001b0: 0000 0000 0000 0000 0000 0000 0000 0000
000001c0: 0000 0000 0000 0000 0000 0000 0000 0000
000001d0: 0000 0000 0000 0000 0000 0000 0000 0000
000001e0: ffff fb3e 0000 0000 0000 0000 0000 0000
000001f0: 0000 0000 0000 0000 0000 0000 0000 0000
00000200: 0000 0000 0000 0000 0000 0000 0000 0000
00000210: 0000 0000 0000 0000 0000 0000 0000 0000
00000220: 0000 0000 0000 0000 0000 0000 0000 0000
00000230: 0000 133f 0000 0000 0000 0000 0000 0000
00000240: 0000 0000 0000 0000 0000 0000 0000 0000
00000250: 0000 0000 0000 0000 0000 0000 0000 0000
00000260: 0000 0000 0000 0000 0000 0000 0000 0000
00000270: 0000 0000 0000 0000 0000 0000 0000 0000
00000280: 0000 283f 0000 0000 0000 0000 0000 0000
00000290: 0000 0000 0000 0000 0000 0000 0000 0000
000002a0: 0000 0000 0000 0000 0000 0000 0000 0000
000002b0: 0000 0000 0000 0000 0000 0000 0000 0000
000002c0: 0000 0000 0000 0000 0000 0000 0000 0000
000002d0: 0000 3d3f 0000 0000 0000 0000 0000 0000
000002e0: 0000 0000 0000 0000 0000 0000 0000 0000
000002f0: 0000 0000 0000 0000 0000 0000 0000 0000
00000300: 0000 0000 0000 0000 0000 0000 0000 0000
00000310: 0000 0000 0000 0000 0000 0000 0000 0000
00000320: 0000 523f 0000 0000 0000 0000 0000 0000
00000330: 0000 0000 0000 0000 0000 0000 0000 0000
00000340: 0000 0000 0000 0000 0000 0000 0000 0000
00000350: 0000 0000 0000 0000 0000 0000 0000 0000
00000360: 0000 0000 0000 0000 0000 0000 0000 0000
00000370: 0000 673f 0000 0000 0000 0000 0000 0000
00000380: 0000 0000 0000 0000 0000 0000 0000 0000
00000390: 0000 0000 0000 0000 0000 0000 0000 0000
000003a0: 0000 0000 0000 0000 0000 0000 0000 0000
000003b0: 0000 0000 0000 0000 0000 0000 0000 0000
000003c0: ffff 7b3f 0000 0000 0000 0000 0000 0000
000003d0: 0000 0000 0000 0000 0000 0000 0000 0000
000003e0: 0000 0000 0000 0000 0000 0000 0000 0000
000003f0: 0000 0000 0000 0000 0000 0000 0000 0000

m_transform.0.0.weight f4 [64, 1, 5, 5]
-0.061794132 0.038356986 -0.021971567 -0.06579075 -0.075712964 0.059314646 -0.027213275 -0.06023048
-0.035441693 0.026150133 -0.0525009 -0.006674931 -0.0071143396 -0.10831789 0.06406056 -0.16810009
0.08194637 -0.13672096 0.004737991 -0.1443005 -0.18142077 0.10533451 -0.14899546 -0.11905686
0.009648639 -0.017979931 0.06272058 -0.033679027 -0.04725978 0.08472617 0.09233809 -0.09068055
0.03771062 0.19294098 0.16826965 0.17543104 -0.030977875 0.027061602 -0.07709948 0.033539835
-0.04420472 -0.20127863 -0.055597574 0.19616376 0.19286017 0.034159914 0.16236477 -0.18711264
0.053092994 -0.060365282 0.19687541 0.1304806 0.1479412 0.09559217 -0.05790362 -0.13869461
-0.21544373 0.08273545 0.12497029 0.14267316 0.023921132 -0.09855247 0.003459893 -0.1693003
0.06417344 0.01631998 -0.18208173 -0.04548637 0.059406847 0.020585991 -0.14414865 -0.042144082
0.039875545 0.010682225 0.17812116 0.11460483 -0.14631209 0.039459232 -0.07189085 0.098809466
0.07918767 -0.14608043 0.027413582 0.10681086 -0.19053766 -0.061921928 -0.11177331 0.09648672
0.120323494 0.003654658 -0.13118318 -0.20718987 -0.19435276 -0.049010873 0.09670931 -0.19852515
0.04800214 0.07272997 -0.077067174 0.17477171 -0.183409 0.21003042 -0.036539625 0.102404624
-0.009247157 0.04414101 0.027907759 -0.05454781 -0.21880968 -0.06765869 0.14219294 0.051036164
0.17567137 0.10536554 -0.14278707 0.052937884 0.089456044 0.09536268 -0.16366401 -0.032052297
0.0286827 -0.028557882 0.14940307 -0.1850709 -0.16197285 0.007727987 0.15448843 -0.04018061
-0.13081144 -0.0048510637 -0.021883672 -0.09199416 -0.0871451 -0.029557252 0.00614328 -0.018095842
0.16851692 -0.08829968 0.031096622 0.12840332 0.2030653 -0.1542672 0.13991456 0.056082062
0.16370851 0.17692214 0.14547975 -0.031242644 -0.12428995 -0.0056523676 0.047088478 0.12055518
-0.029151682 -0.105716586 0.18649359 0.12701058 -0.020643536 0.17255174 0.1152337 -0.1408639
-0.13490309 -0.123391636 -0.06155511 -0.20825242 0.22277746 0.11604534 -0.15686119 0.017494243
0.14510375 0.012028947 0.105393246 0.15948121 -0.16826288 0.006046451 0.03557516 -0.037761956
0.06734625 -0.14978635 0.06764893 -0.085641295 -0.028532859 0.15755169 0.15816942 -0.1351932
-0.17297448 0.12267057 0.031300306 -0.11246992 0.123227544 -0.118874244 0.07205216 0.18129678
-0.048765775 -0.1119668 0.077053264 0.18695256 0.15157826 0.15115453 -0.027935358 -0.123943046
-0.14977929 0.011400633 0.17457536 -0.08017515 0.1075984 -0.097427905 0.16967443 0.08217171
0.04495591 0.006521075 -0.08322441 -0.09841113 -0.075643525 0.03991546 -0.04896213 0.10071142
-0.111924514 0.03490867 0.083267584 0.014181609 0.035193514 -0.13280863 -0.0057524163 -0.0099139605
0.17827365 0.041460928 -0.12483464 -0.028163886 0.17369331 -0.07034805 -0.088668704 -0.005047624
0.13525397 0.04423295 0.11445061 -0.08019561 -0.10537909 0.015985673 -0.16861358 -0.169094
-0.07063246 -0.03422331 0.075077385 -0.1559716 -0.19425447 -0.19224712 0.10593894 0.14686427
0.03689064 -0.12729314 -0.16135973 -0.06478148 -0.06858333 0.017748253 -0.010431606 0.21936867
00000000: d81b 7dbd 371c 1d3d b7fd b3bc 4dbd 86bd
00000010: 660f 9bbd eaf3 723d 60ee debc 3cb4 76bd
00000020: 4f2b 11bd ce38 d63c 2f0b 57bd 61b9 dabb
00000030: 681f e9bb c5d5 ddbd 2f32 833d 6e22 2cbe
00000040: 80d3 a73d 9400 0cbe 2641 9b3b 83c3 13be
00000050: 5ec6 39be 9fb9 d73d 4492 18be 15d4 f3bd
00000060: 5315 1e3c a64a 93bc a673 803d 05f3 09bd
00000070: 7993 41bd ea84 ad3d c11b bd3d b9b6 b9bd
00000080: 7376 1a3d 5292 453e e14e 2c3e 32a4 333e
00000090: 50c5 fdbc 4bb0 dd3c 55e6 9dbd 1161 093d
000000a0: 0210 35bd fc1b 4ebe 48ba 63bd 27df 483e
000000b0: 237d 453e 44eb 0b3d f342 263e 759a 3fbe
000000c0: 0a78 593d 9641 77bd b599 493e b59c 053e
000000d0: e67d 173e d4c5 c33d 592c 6dbd f605 0ebe
000000e0: 489d 5cbe 3471 a93d 6cf0 ff3d ea18 123e
000000f0: 40f6 c33c e1d5 c9bd 5fbf 623b 0f5d 2dbe
00000100: 5d6d 833d 7bb1 853c a273 3abe ea4f 3abd
00000110: 9854 733d f4a3 a83c b49b 13be 469f 2cbd
00000120: 8a54 233d 8004 2f3c 6565 363e f0b5 ea3d
00000130: d6d2 15be 01a0 213d 833b 93bd 9e5c ca3d
00000140: 252d a23d 1c96 15be 7392 e03c a7bf da3d
00000150: 4e1c 43be d9a1 7dbd 68e9 e4bd d49a c53d
00000160: 2a6c f63d fd82 6f3b e254 06be 9529 54be
00000170: 6904 47be a0bf 48bd 880f c63d 2d4a 4bbe
00000180: e49d 443d 73f3 943d 65d5 9dbd 5bf7 323e
00000190: 92cf 3bbe 3712 573e 93aa 15bd 84b9 d13d
000001a0: 6381 17bc 34cd 343d d09e e43c 866d 5fbd
000001b0: a50f 60be a490 8abd 079b 113e 4c0b 513d
000001c0: 32e3 333e e3c9 d73d c636 12be 65d5 583d
000001d0: bb34 b73d 824d c33d 8a97 27be 4549 03bd
000001e0: fbf7 ea3c 38f2 e9bc 1efd 183e 3a83 3dbe
000001f0: 36dc 25be 0e3b fd3b 3732 1e3e 6c94 24bd
00000200: 6ff3 05be acf5 9ebb 6345 b3bc 6f67 bcbd
00000210: 2179 b2bd 0d22 f2bc 914d c93b bb3d 94bc
00000220: b38f 2c3e 76d6 b4bd 58be fe3c 297c 033e
00000230: 5af0 4f3e 39f8 1dbe c345 0f3e 4eb6 653d
00000240: 34a3 273e 142b 353e a5f8 143e 93f0 ffbc
00000250: bb8b febd 7f37 b9bb d9df 403d a2e5 f63d
00000260: 82cf eebc f081 d8bd 2df8 3e3e 100f 023e
00000270: a21c a9bc 67b1 303e a5ff eb3d a03e 10be
00000280: 0924 0abe c1b4 fcbd 3621 7cbd 1f40 55be
00000290: c61f 643e 2ea9 ed3d 38a0 20be 1650 8f3c
000002a0: 1496 143e 0f15 453c 6ad8 d73d 0b4f 233e
000002b0: 1b4d 2cbe 4f21 c63b 42b7 113d 48ac 1abd
000002c0: d5ec 893d 9861 19be 868b 8a3d b464 afbd
000002d0: bebd e9bc 3b55 213e 2af7 213e 1670 0abe
000002e0: 3920 31be b53a fb3d c034 003d a156 e6bd
000002f0: b95e fc3d 5774 f3bd 1590 933d dda5 393e
00000300: 9fbe 47bd da4e e5bd 1ace 9d3d 7e70 3f3e
00000310: 5537 1b3e 41c8 1a3e b1d8 e4bc dad5 fdbd
00000320: be5f 19be b8c9 3a3c e2c3 323e de32 a4bd
00000330: 8d5c dc3d 4888 c7bd 22bf 2d3e a449 a83d
00000340: b023 383d beae d53b 8f71 aabd c68b c9bd
00000350: feea 9abd 657e 233d 848c 48bd ca41 ce3d
00000360: ae38 e5bd 65fc 0e3d 3288 aa3d fb59 683c
00000370: 1327 103d fcfe 07be c47e bcbb 2a6e 22bc
00000380: 5e8d 363e efd2 293d 4ea9 ffbd f3b7 e6bc
00000390: a9dc 313e a312 90bd f097 b5bd 8a66 a5bb
000003a0: 0480 0a3e 9c2d 353d 1565 ea3d 993d a4bd
000003b0: fed0 d7bd 63f4 823c 0aa9 2cbe fa26 2dbe
000003c0: c0a7 90bd be2d 0cbd 2cc2 993d 05b7 1fbe
000003d0: a5ea 46be 6edc 44be 84f6 d83d 9663 163e
000003e0: a41a 173d 2259 02be 7c3b 25be 27ac 84bd
000003f0: 6b75 8cbd c964 913c 54e9 2abc 2ea2 603e

m_transform.0.0.bias f4 [64]
0.041609176 -0.122158624 -0.06768173 0.11706223 -0.060482655 -0.1849558 0.052422594 -0.07729295
-0.20708822 -0.12706724 0.121662185 0.09895337 0.1405991 -0.060053796 -0.18942423 0.17042045
0.055129226 0.0100683635 0.103863 -0.03470463 0.07704428 0.025753442 -0.021067286 -0.03243729
0.14718245 -0.10163353 -0.0097718015 -0.03401643 -0.0008929863 0.17493202 0.10719009 0.062317207
0.055166148 -0.08097312 -0.17133255 0.11779338 -0.12226855 0.07782792 0.07609395 -0.06593823
0.09602039 0.007573156 -0.07252074 0.14878695 0.23050217 -0.10595271 -0.044364255 -0.15126003
-0.14233644 0.0011966367 -0.062047858 -0.05400828 0.20875789 0.045273382 -0.0613917 -0.09597786
0.08590082 0.05121085 0.010046147 0.07455455 0.19987497 -0.037010416 0.11374524 0.15721865
00000000: 626e 2a3d 4d2e fabd b89c 8abd 53be ef3d
00000010: a9bc 77bd 0e65 3dbe 13b9 563d c44b 9ebd
00000020: ef0e 54be ea1d 02be 062a f93d 10a8 ca3d
00000030: 36f9 0f3e f8fa 75bd 6df8 41be b382 2e3e
00000040: 2fcf 613d c7f5 243c 20b6 d43d 7126 0ebd
00000050: 64c9 9d3d e2f8 d23c 4d95 acbc f7dc 04bd
00000060: ffb6 163e 3d25 d0bd e819 20bc d054 0bbd
00000070: 4c17 6aba 6121 333e 7a86 db3d 5440 7f3d
00000080: e6f5 613d 3cd5 a5bd cd71 2fbe a83d f13d
00000090: ef67 fabd 3f64 9f3d 25d7 9b3d 9f0a 87bd
000000a0: 57a6 c43d 3d28 f83b c185 94bd 9b5b 183e
000000b0: c308 6c3e bcfd d8bd 4bb7 35bd e9e3 1abe
000000c0: a5c0 11be 77d8 9c3a e525 7ebd c937 5dbd
000000d0: a1c4 553e 9570 393d dd75 7bbd 0a90 c4bd
000000e0: c5ec af3d 78c2 513d 9898 243c 0eb0 983d
000000f0: 06ac 4c3e 3c98 17bd 44f3 e83d edfd 203e

m_transform.0.3.weight f4 [64, 32, 1, 1]
-0.18318938 0.052721065 0.04920796 0.0954581 0.07512013 -0.1290072 -0.058552627 0.03456705
-0.14116557 -0.063886374 0.15393119 -0.11623242 -0.12743746 -0.021877412 0.09069818 0.13114767
0.13695638 -0.12774678 -0.12801334 0.13304119 0.104418606 0.11415695 -0.014416368 -0.17168956
-0.14703107 -0.16120121 -0.14161897 -0.07540694 0.003084306 -0.08809634 0.14804406 0.1514918
-0.18614872 -0.13170843 0.20296873 0.073917404 -0.18679899 0.0425601 0.14213318 0.09536125
-0.08729392 0.068783686 -0.103156015 0.0061741984 0.06474497 0.1673616 0.107866995 0.081047155
0.13747917 -0.19424684 -0.105417915 -0.035441097 -0.1886083 -0.02758666 -0.17199507 -0.054631237
-0.0741018 0.08975158 0.076639846 0.0823738 0.055044547 0.059930544 -0.026367944 0.15311833
0.15206538 0.08687588 0.0046736784 0.0663331 0.1635522 0.048498344 -0.070780724 0.074969955
-0.1607483 -0.09111288 -0.08272983 -0.07961228 0.10997929 -0.16907933 0.020534363 -0.10781767
-0.08581625 -0.09685708 -0.09502465 0.12117345 -0.030732965 0.037505228 -0.17496195 0.103481196
0.026305292 0.1425854 0.16746582 0.14778171 0.12609515 0.11702431 0.16071741 -0.17994158
-0.053014282 0.11487696 -0.0041624163 -0.08882323 0.060570236 -0.1291842 0.11675638 0.04537695
0.01686725 0.15029399 -0.07487368 -0.06776696 0.046010043 -0.096195005 0.07100775 0.015880404
-0.052702423 0.0103311455 -0.064923376 0.103524685 -0.115459986 0.09851707 -0.096577264 -0.14364925
0.15017873 0.17223361 -0.14135078 -0.043548685 0.059824888 -0.09662214 -0.12921931 0.12188318
0.12077656 0.030983958 -0.018927777 -0.004219362 0.09172497 0.15749997 0.0016365529 0.14233091
-0.10009046 0.033504836 -0.07627843 -0.13445559 -0.044151004 -0.006651324 -0.06819851 0.1751225
-0.11429995 0.10841753 0.16537091 -0.13142684 -0.107173815 -0.029786365 0.14766826 -0.057622656
-0.078134105 -0.14067711 -0.16056308 -0.009600457 -0.021623852 -0.066652566 0.13744183 -0.03999658
-0.0075329053 0.12175373 0.15049419 -0.16701837 -0.01633505 -0.081895486 -0.09606285 0.1481887
-0.00617539 -0.038736556 -0.094944775 0.022767456 -0.13878429 0.07190347 -0.14975138 0.007782003
-0.1392697 -0.08533692 0.027771 -0.17034198 -0.12820737 0.13224714 -0.050568245 -0.0066511254
0.15018824 0.11735141 -0.14819275 -0.04765317 -0.056026127 0.0908998 0.013713213 -0.14149517
0.08965254 -0.09656254 -0.07410318 -0.113189 -0.1737706 -0.10336506 0.09370376 -0.18507196
-0.0046300553 0.16527945 0.031771503 0.029830793 0.09874992 -0.16119525 0.04251501 -0.0379356
0.15035313 0.092470296 -0.097651236 0.054860603 0.118115 -0.067701034 0.06698623 0.10856918
0.16157441 -0.041332696 -0.05152547 -0.0059291413 0.11911356 -0.16608633 -0.14499259 -0.016255906
-0.07583021 0.15423514 -0.104181714 -0.16377869 -0.08941031 -0.005874405 0.093066484 0.12123257
0.16426177 0.025916161 0.10108214 -0.13901655 0.16051139 -0.1390068 0.014396932 0.10716605
0.16776137 0.0048711356 0.07310607 -0.043492746 -0.07295209 -0.04011236 0.0856053 0.02823084
-0.0871089 -0.07820817 -0.0006841252 0.006477193 -0.14051482 0.14412962 -0.10372239 -0.12488469
00000000: ff95 3bbe 0bf2 573d 498e 493d 897f c33d
00000010: 95d8 993d 771a 04be e1d4 6fbd 2e96 0d3d
00000020: b58d 10be dcd6 82bd 23a0 1d3e 430b eebd
00000030: f77e 02be 4238 b3bc f8bf b93d 934b 063e
00000040: 4b3e 0c3e 0dd0 02be ee15 03be f33b 083e
00000050: 6cd9 d53d 1ecb e93d a132 6cbc 63cf 2fbe
00000060: 508f 16be ee11 25be 9004 11be f46e 9abd
00000070: 1122 4a3b db6b b4bd dd98 173e ab20 1b3e
00000080: c59d 3ebe 93de 06be 09d7 4f3e 0262 973d
00000090: 3c48 3fbe 8053 2e3d 5c8b 113e c24c c33d
000000a0: 28c7 b2bd 76de 8c3d 7643 d3bd ee50 ca3b
000000b0: 0399 843d d760 2b3e 5fe9 dc3d 0dfc a53d
000000c0: 57c7 0c3e a5e8 46be 59e5 d7bd af2a 11bd
000000d0: 8922 41be 6bfd e1bc 7a1f 30be 01c5 5fbd
000000e0: afc2 97bd adcf b73d 5af5 9c3d 98b3 a83d
000000f0: 6476 613d bb79 753d 9601 d8bc 0dcb 1c3e
00000100: 07b7 1b3e fbeb b13d a825 993b a6d9 873d
00000110: 3a7a 273e 33a6 463d 7cf5 90bd d989 993d
00000120: 349b 24be 6499 babd 426e a9bd c30b a3bd
00000130: d23c e13d 2223 2dbe ae37 a83c 83cf dcbd
00000140: 6ec0 afbd 015d c6bd 499c c2bd c929 f83d
00000150: b3c3 fbbc 159f 193d 3a29 33be f3ed d33d
00000160: 327e d73c e801 123e 297c 2b3e 1754 173e
00000170: 161f 013e 71aa ef3d 1b93 243e 9b42 38be
00000180: 8125 59bd 9d44 eb3d e164 88bb f4e8 b5bd
00000190: 7f18 783d dd48 04be f81d ef3d 2edd 393d
000001a0: 302d 8a3c abe6 193e 5f57 99bd 67c9 8abd
000001b0: 0775 3c3d e301 c5bd 836c 913d 9f17 823c
000001c0: 7fde 57bd f743 293c 8cf6 84bd c004 d43d
000001d0: 4976 ecbd 51c3 c93d 4dca c5bd ca18 13be
000001e0: 74c8 193e 025e 303e 42be 10be 1b60 32bd
000001f0: f10a 753d d4e1 c5bd 1152 04be e49d f93d
00000200: b359 f73d 12d2 fd3c 6d0e 9bbc 9342 8abb
00000210: 4dda bb3d ac47 213e 9a81 d63a 32bf 113e
00000220: 3afc ccbd 5e3c 093d de37 9cbd baae 09be
00000230: afd7 34bd 5af3 d9bb a9ab 8bbd 5053 333e
00000240: 1816 eabd 030a de3d fe56 293e c294 06be
00000250: f27d dbbd 8902 f4bc 5936 173e bc05 6cbd
00000260: c604 a0bd a90d 10be a66a 24be 3c4b 1dbc
00000270: 8124 b1bc 2481 88bd 8dbd 0c3e 74d3 23bd
00000280: 97d6 f6bb 055a f93d 261b 1a3e dd06 2bbe
00000290: 15d1 85bc d2b8 a7bd 99bc c4bd c7be 173e
000002a0: ed5a cabb 39aa 1ebd 6872 c2bd d182 ba3c
000002b0: 781d 0ebe 2042 933d 6d58 19be 2c00 ff3b
000002c0: b79c 0ebe 20c5 aebd 0280 e33c 216e 2ebe
000002d0: cb48 03be cb6b 073e a620 4fbd aff1 d9bb
000002e0: f2ca 193e f055 f03d d7bf 17be f82f 43bd
000002f0: a77b 65bd ad29 ba3d 62ad 603c 1ce4 10be
00000300: c09b b73d 95c2 c5bd 68c3 97bd a2cf e7bd
00000310: ecf0 31be 10b1 d3bd c2e7 bf3d 8183 3dbe
00000320: b8b7 97bb 043f 293e d622 023d b55f f43c
00000330: 663d ca3d 5e10 25be 3824 2e3d 5c62 1bbd
00000340: 2cf6 193e 1161 bd3d 5ffd c7bd 83b5 603d
00000350: 47e6 f13d d7a6 8abd 1430 893d 8559 de3d
00000360: c373 253e 794c 29bd 5f0c 53bd 3e49 c2bb
00000370: cff1 f33d 8912 2abe f078 14be 1b2b 85bc
00000380: de4c 9bbd d1ef 1d3e 395d d5bd 9ab5 27be
00000390: c11c b7bd 157e c0bb a499 be3d c848 f83d
000003a0: 3d34 283e 214e d43c 2704 cf3d 5b5a 0ebe
000003b0: 195d 243e cc57 0ebe 1ce1 6b3c e079 db3d
000003c0: a3c9 2b3e 0c9e 9f3b a3b8 953d 7325 32bd
000003d0: e867 95bd dc4c 24bd d551 af3d 5d44 e73c
000003e0: 2766 b2bd 9b2b a0bd dd56 33ba a23e d43b
000003f0: 1ee3 0fbe b796 133e 686c d4bd 8bc3 ffbd

m_transform.0.3.bias f4 [64]
-0.12857021 0.07923132 -0.017958937 -0.014357594 -0.122738525 0.13498749 -0.079374105 0.12633936
-0.061648663 0.16664979 -0.12971278 -0.13701314 -0.01649985 0.028735302 0.1691102 -0.055072576
-0.07723207 -0.1917131 0.16579248 -0.10095274 -0.021606391 -0.011973431 0.1712684 -0.11478223
0.16108306 -0.12611863 -0.13982967 0.10341558 0.08611998 0.08477467 -0.08821191 -0.12643698
0.041044656 -0.10611907 -0.051939018 0.11616591 -0.17692852 0.08587982 -0.08692857 -0.13243026
-0.04872181 -0.12364168 0.15805997 0.12470437 0.11381207 0.03893698 0.032751996 0.06321063
-0.08730957 -0.0011720881 -0.13173482 -0.14686689 0.18676853 0.1428189 -0.09375222 0.09879277
-0.020577865 -0.14463454 0.070277795 -0.08078507 -0.010207795 -0.013338916 -0.005075142 0.113398954
00000000: e9a7 03be 0844 a23d 9f1e 93bc 1d3c 6bbc
00000010: 565e fbbd 293a 0a3e e48e a2bd 1b5f 013e
00000020: 4f83 7cbd 3ea6 2a3e 6dd3 04be 2c4d 0cbe
00000030: b22a 87bc 4c66 eb3c 392b 2d3e c893 61bd
00000040: d92b 9ebd 7050 44be 81c5 293e 4fc0 cebd
00000050: e3ff b0bc 362c 44bc fc60 2f3e f212 ebbd
00000060: f5f2 243e 3e25 01be 822f 0fbe 8ccb d33d
00000070: ac5f b03d 589e ad3d 72a8 b4bd b278 01be
00000080: 711e 283d f454 d9bd 02be 54bd 65e8 ed3d
00000090: c02c 35be c2e1 af3d 9b07 b2bd cc9b 07be
000000a0: 8590 47bd d937 fdbd 79da 213e 0165 ff3d
000000b0: 4d16 e93d 627c 1f3d f526 063d 9374 813d
000000c0: 5ccf b2bd c0a0 99ba 7ee5 06be 4664 16be
000000d0: 4040 3f3e 1e3f 123e 2a01 c0bd dd53 ca3d
000000e0: e992 a8bc 141b 14be ceed 8f3d a572 a5bd
000000f0: 983e 27bc 788b 5abc 604d a6bb b63d e83d

m_transform.0.5.running_mean f4 [32]
-0.017798288 0.3519058 0.30478364 0.07053801 -0.19805834 -0.14116406 -0.028028257 0.09232847
-0.10108679 0.21169202 0.115743056 0.008137814 0.40218797 0.08793065 0.11953213 0.32728955
0.028775753 -0.119309075 0.560049 0.060962897 0.11619071 0.3593414 0.12755528 -0.00478023
0.26254073 -0.049423173 0.13796577 0.14295587 0.21310642 0.2892809 0.18203838 -0.056078266
00000000: b7cd 91bc ff2c b43e 9a0c 9c3e 3b76 903d
00000010: cecf 4abe 508d 10be 849b e5bc b516 bd3d
00000020: 9706 cfbd cbc5 583e b20a ed3d 7754 053c
00000030: 95eb cd3e fc14 b43d 43cd f43d 7f92 a73e
00000040: 21bb eb3c 5158 f4bd 5f5f 0f3f 3bb4 793d
00000050: 65f5 ed3d 99fb b73e da9d 023e 7aa3 9cbb
00000060: bd6b 863e f46f 4abd e646 0d3e 0663 123e
00000070: 9238 5a3e a01c 943e 4568 3a3e 53b2 65bd

m_transform.0.5.running_var f4 [32]
0.016890667 0.19263089 0.14415422 0.016623348 0.015401534 0.093804315 0.017616637 0.03274422
0.020141764 0.03776759 0.017098563 0.020829739 0.07427968 0.056911755 0.056980547 0.07430929
0.039070044 0.03473203 0.22341663 0.085148595 0.036566056 0.07773622 0.06554489 0.029283516
0.052188147 0.03107834 0.047979694 0.033291746 0.043703914 0.06913743 0.071218036 0.028379792
00000000: 4c5e 8a3c 0841 453e 2a9d 133e b02d 883c
00000010: b756 7c3c 7a1c c03d c450 903c ce1e 063d
00000020: 5700 a53c 30b2 1a3d 4912 8c3c 21a3 aa3c
00000030: f21f 983d 4d1c 693d 6f64 693d 782f 983d
00000040: e907 203d 2c43 0e3d 54c7 643e 6362 ae3d
00000050: 4ac6 153d 2b34 9f3d 663c 863d fce3 ef3c
00000060: 3dc3 553d 0198 fe3c 5b86 443d ed5c 083d
00000070: e002 333d ed97 8d3d c3da 913d bd7c e83c

m_transform.0.6.weight f4 [96, 32, 3, 3]
-0.050601553 -0.012229704 0.0026014633 0.018515935 -0.030747948 -0.027830917 0.02840434 -0.057123147
0.05061797 0.055432506 -0.026367627 -0.019743085 -0.04485167 0.014824898 0.0024921459 0.0441609
-0.030596752 -0.036340933 0.038750265 0.059746243 -0.06609314 0.026514664 0.001768159 -0.012055853
0.04238238 0.057819918 -0.061542455 -0.024780432 -0.075310476 -0.009701702 -0.03776692 0.055521257
0.014243259 -0.017260488 0.031875823 0.04142807 0.0022655022 0.005548101 0.031536046 -0.038992174
0.03562972 -0.010143497 -0.001043632 0.05844822 0.041405946 -0.07317014 -0.042487137 -0.024687769
-0.056253757 -0.036189627 0.025811799 -0.042606194 -0.0021541938 0.022964722 -0.00592348 0.009940834
-0.00010794523 -0.0072796913 0.0056358734 0.01135448 -0.0011096926 0.0031144968 -0.02530853 -0.035603434
0.03440249 -0.048682574 0.011214746 0.02714028 -0.045371253 -0.064209625 0.052514683 -0.03813656
0.019774755 -0.032060575 0.10351408 0.03274845 -0.022227881 0.021693362 0.061138134 0.035127744
0.057000224 0.015469447 0.038456317 -0.010677214 -0.055013187 0.0060440726 -0.053510077 0.037814338
0.007708122 -0.03311015 0.057586662 0.03483968 -0.005214818 -0.020717531 0.048520587 -0.076192975
0.030881876 0.054354575 -0.04543285 -0.020430041 -0.043143474 -0.021387266 0.04517264 0.02106081
0.01319419 -0.01786163 -0.04347342 0.034836635 0.07137122 0.025340246 -0.052392416 0.055524476
0.07098708 -0.010853187 -0.00917487 0.01535232 -0.03761153 0.0017451561 0.029673565 0.041018937
0.021326516 -0.043018434 -0.026520079 -0.038781557 -0.009260409 -0.009827968 0.006374012 -0.0060139787
0.044808924 0.025133645 0.014228319 -0.00046649214 -0.030023428 0.04546772 0.05136283 0.012780443
-0.049781006 -0.002372562 0.050027534 -0.020116981 -0.03867478 -0.05355722 -0.009664839 0.024776177
0.045518696 0.049661543 -0.042393316 0.016112842 0.016822735 -0.012306314 0.037270978 -0.011851719
-0.057369765 0.01661779 0.014270758 0.030610261 -0.06724458 0.039376833 0.059983224 -0.04148142
-0.052190956 -0.033461258 0.039186034 -0.030594835 0.020734046 -0.043156672 0.05375935 -0.026782341
-0.04715018 -0.05194959 0.023692979 0.027110744 -0.047673024 0.035849348 -0.027536416 -0.011045961
-0.04467278 0.016975855 -0.038131937 0.06705989 -0.02244352 -0.060423993 0.0061849062 0.0036185293
-0.0020811069 0.01372294 -0.06249461 -0.005571725 0.017607622 0.024293479 0.06597236 -0.05616861
0.042232975 0.05904076 -0.023576917 0.011937451 -0.026151206 -0.03348232 0.05007238 -0.06234069
0.038346212 -0.0087898625 -0.058611505 0.004875183 -0.045612473 -0.023458704 0.024633503 -0.060472347
-0.006848482 0.04695532 -0.036619674 0.043112498 0.075425185 0.043382693 -0.0140726995 -0.011581089
-0.038505133 0.02479695 -0.04768766 -0.02140655 0.0340734 0.008406092 0.0117741665 -0.045516334
-0.049097773 0.032606464 0.032214984 0.0069445246 0.022089286 -0.02251683 -0.020670837 0.044994973
0.017176894 0.012491682 -0.029893199 0.043180764 -0.041882675 -0.066013515 -0.016026478 0.003194471
-0.03300321 0.020476598 -0.052956935 -0.07147154 -0.010438697 0.05333974 -0.008752438 0.047229566
0.05956702 -0.06076189 0.010019763 0.007613399 0.058620125 -0.026146324 -0.03333403 -0.039356254
00000000: 9343 4fbd 195f 48bc 507d 2a3b bbae 973c
00000010: 1fe3 fbbc aafd e3bc 38b0 e83c f6f9 69bd
00000020: ca54 4f3d 320d 633d ec00 d8bc 40bc a1bc
00000030: 62b6 37bd 21e4 723c 4553 233b 0fe2 343d
00000040: 0aa6 fabc 3bda 14bd 99b8 1e3d 7ab8 743d
00000050: d75b 87bd 4835 d93c 92c1 e73a ea85 45bc
00000060: 2699 2d3d 94d4 6c3d f113 7cbd 5500 cbbc
00000070: 613c 9abd e3f3 1ebc 7cb1 1abd 426a 633d
00000080: 8f5c 693c de65 8dbc 3990 023d 7bb0 293d
00000090: d278 143b d8cc b53b f12b 013d 42b6 1fbd
000000a0: 78f0 113d e930 26bc 7bca 88ba 6767 6f3d
000000b0: 4899 293d 3ada 95bd fe06 2ebd 013e cabc
000000c0: 576a 66bd 933b 14bd 4473 d33c d583 2ebd
000000d0: 602d 0dbb 8320 bc3c c019 c2bb e1de 223c
000000e0: a760 e2b8 7a8a eebb 22ad b83b 2408 3a3c
000000f0: 1b73 91ba 961c 4c3b d653 cfbc e8d4 11bd
00000100: a0e9 0c3d 6167 47bd 0ebe 373c 4b55 de3c
00000110: 35d7 39bd 5680 83bd a319 573d 1535 1cbd
00000120: abfe a13c f351 03bd 31ff d33d 3d23 063d
00000130: 3f17 b6bc 47b6 b13c fb6b 7a3d 1ce2 0f3d
00000140: 1179 693d 9073 7d3c 5f84 1d3d 7bef 2ebc
00000150: 8255 61bd 5b0d c63b 622d 5bbd 35e3 1a3d
00000160: 6a94 fc3b 829e 07bd fedf 6b3d 0db4 0e3d
00000170: 10e1 aabb d0b7 a9bc 86bd 463d 100b 9cbd
00000180: fdfb fc3c e7a2 5e3d cc17 3abd e75c a7bc
00000190: 36b7 30bd 5934 afbc f206 393d b887 ac3c
000001a0: 722c 583c 8e52 92bc 2f11 32bd dcb0 0e3d
000001b0: 132b 923d 5996 cf3c 6e99 56bd a26d 633d
000001c0: ad61 913d 91d1 31bc 3252 16bc 4c88 7b3c
000001d0: 8c0e 1abd b9bd e43a fa15 f33c 7903 283d
000001e0: f2b4 ae3c 1934 30bd a340 d9bc 69d9 1ebd
000001f0: f8b8 17bc 7c05 21bc 17dd d03b e910 c5bb
00000200: 9089 373d 13e5 cd3c e51d 693c 8493 f4b9
00000210: b1f3 f5bc 5c3c 3a3d d561 523d 1065 513c
00000220: 2be7 4bbd fc7c 1bbb ace9 4c3d 5ecc a4bc
00000230: 7269 1ebd d15e 5bbd 4659 1ebc 69f7 ca3c
00000240: d071 3a3d e769 4b3d 9da4 2dbd 14ff 833c
00000250: d5cf 893c 6ca0 49bc 74a9 183d b62d 42bc
00000260: 8ffc 6abd 0822 883c e6cf 693c 5fc2 fa3c
00000270: 87b7 89bd 9a49 213d f8b0 753d 6ce8 29bd
00000280: 2fc6 55bd ac0e 09bd 8981 203d 05a2 fabc
00000290: 72da a93c 0dc5 30bd c432 5c3d a466 dbbc
000002a0: 8c20 41bd 18c9 54bd c717 c23c 5a17 de3c
000002b0: ca44 43bd c4d6 123d 0d94 e1bc 1efa 34bc
000002c0: cefa 36bd f310 8b3c 3c30 1cbd b256 893d
000002d0: 79db b7bc 267f 77bd c1aa ca3b d924 6d3b
000002e0: 2e63 08bb 2fd6 603c 59fa 7fbd 0493 b6bb
000002f0: dc3d 903c 1e03 c73c 841c 873d 0e11 66bd
00000300: 7cfc 2c3d b9d4 713d 6124 c1bc 4c95 433c
00000310: 0e3b d6bc c224 09bd b218 4d3d f458 7fbd
00000320: eb10 1d3d 5b03 10bc 9e12 70bd 00c0 9f3b
00000330: 25d4 3abd 782c c0bc 33cc c93c dab1 77bd
00000340: 3b69 e0bb 3954 403d 83fe 15bd bb96 303d
00000350: 8578 9a3d 0db2 313d 2e91 66bc 9cbe 3dbc
00000360: 8fb7 1dbd f922 cb3c 2354 43bd ca5c afbc
00000370: 8d90 0b3d b5b9 093c 6fe8 403c 566f 3abd
00000380: bf1a 49bd 5b8e 053d dcf3 033d e58e e33b
00000390: 97f4 b43c 3775 b8bc e355 a9bc a64c 383d
000003a0: 8fb6 8c3c e9a9 4c3c 95e2 f4bc 50de 303d
000003b0: 2b8d 2bbd 1832 87bd f649 83bc 545a 513b
000003c0: 602e 07bd 8abe a73c 5fe9 58bd ac5f 92bd
000003d0: 1207 2bbc c57a 5a3d 6366 0fbc ca73 413d
000003e0: 8cfc 733d 76e1 78bd ef29 243c d279 f93b
000003f0: a81b 703d d130 d6bc 4489 08bd 0634 21bd

m_transform.0.6.bias f4 [96]
-0.061390653 -0.0029354494 -0.030104144 0.022921793 0.0572294 -0.02937343 0.06599215 -0.020833224
-0.01948877 0.03830515 -0.0534002 -0.0642652 -0.09258979 -0.045504656 0.025264172 -0.00020105454
0.04437558 -0.0235825 -0.034341082 0.053158272 -0.043778308 0.032929685 -0.05973408 -0.04458691
-0.021024123 0.02921121 -0.033061393 -0.042036764 0.0031572753 -0.0007979117 -0.03257459 0.018443953
0.028139215 -0.03379075 0.028272064 0.046958383 -0.0014852906 -1.6671902e-05 0.019051163 -0.030818624
9.8523116e-05 -0.015524364 -0.05522489 0.04955437 0.0036538725 -0.017894832 0.0730029 0.045092862
0.060726464 0.030722255 0.036704868 -0.034208667 0.04901912 -0.016528526 -0.039363243 -0.014627977
0.06608773 -0.046433814 0.027343243 0.004792537 0.040498838 -0.037015844 -0.0777834 -0.0072730076
-0.020350248 -0.04910838 0.094156705 -0.026937455 -0.04884932 0.044025272 0.08714976 -0.018602235
-0.035994176 -0.018213345 -0.037858304 -0.034800675 -0.05294514 -0.012059021 0.016125591 0.057414267
-0.002521142 0.015876425 -0.021412421 0.014886784 -0.028672814 -0.03411883 -0.002278436 0.07072929
-0.05122247 -0.023010619 0.00624749 -0.042465076 0.0048120376 -0.004866292 0.022139018 -0.0005495234
00000000: c474 7bbd ab60 40bb f79c f6bc 7cc6 bb3c
00000010: 6069 6a3d 8ca0 f0bc e426 873d 70aa aabc
00000020: eaa6 9fbc dce5 1c3d 2bba 5abd 799d 83bd
00000030: b79f bdbd 1763 3abd cff6 ce3c 2bd2 52b9
00000040: 2bc3 353d 1630 c1bc 3ca9 0cbd 7dbc 593d
00000050: e250 33bd 47e1 063d b9ab 74bd c4a0 36bd
00000060: c83a acbc 594c ef3c 626b 07bd be2e 2cbd
00000070: 4aea 4e3b f32a 51ba ef6c 05bd c617 973c
00000080: 3684 e63c 2b68 0abd d19a e73c 6f57 403d
00000090: 15ae c2ba a3da 8bb7 2f11 9c3c 5777 fcbc
000000a0: 329e ce38 e759 7ebc 7f33 62bd 86f9 4a3d
000000b0: cf75 6f3b 2f98 92bc 8b82 953d 4bb3 383d
000000c0: 50bc 783d 3dad fb3c d857 163d 631e 0cbd
000000d0: 46c8 483d d566 87bc 5a3b 21bd 2faa 6fbc
000000e0: 0159 873d 6231 3ebd f0fe df3c b70a 9d3b
000000f0: 1ce2 253d ed9d 17bd e74c 9fbd 6952 eebb
00000100: 90b5 a6bc de25 49bd 3bd5 c03d f0ab dcbc
00000110: 3916 48bd d853 343d 937b b23d b763 98bc
00000120: a16e 13bd 2734 95bc 4f11 1bbd 278b 0ebd
00000130: 01dd 58bd 3393 45bc d119 843c 392b 6b3d
00000140: be39 25bb 470f 823c 1a69 afbc b3e7 733c
00000150: 40e3 eabc 30c0 0bbd d051 15bb 85da 903d
00000160: a7ce 51bd c480 bcbc bfb7 cc3b dcef 2dbd
00000170: 4cae 9d3b 6a75 9fbb e35c b53c e40d 10ba

m_transform.0.9.running_mean f4 [48]
1.0303271 0.9968775 0.9378388 1.0027558 0.93195367 0.79120916 0.91207516 0.9148849
1.0106989 0.7120075 1.1608826 0.79002637 0.70336074 0.9724489 0.9143608 0.9682758
1.3154374 0.9625313 0.97111374 0.89151555 1.2601889 0.89852774 0.8867392 1.1522481
0.85061806 0.84174114 1.0302805 1.0935005 0.75228 0.85490525 1.0331564 0.81737953
1.2872751 0.960646 0.8323352 1.0230755 0.7360862 0.7849976 0.81749076 0.9485535
0.9400753 1.1129764 0.8526983 0.80887496 1.2305304 0.85685104 0.9086183 1.0983976
00000000: c2e1 833f 5d33 7f3f 3416 703f 4d5a 803f
00000010: 8494 6e3f af8c 4a3f c27d 693f e635 6a3f
00000020: 955e 813f 2046 363f cd97 943f 2b3f 4a3f
00000030: 730f 343f 69f2 783f 8d13 6a3f ece0 773f
00000040: 4160 a83f 7468 763f e99a 783f 5d3a 643f
00000050: df4d a13f ea05 663f 5701 633f de7c 933f
00000060: 1bc2 593f 597c 573f 3be0 833f d3f7 8b3f
00000070: 6c95 403f 12db 5a3f 783e 843f c93f 513f
00000080: 6ec5 a43f e5ec 753f eb13 553f 23f4 823f
00000090: 2570 3c3f 9af5 483f 1347 513f 67d4 723f
000000a0: c6a8 703f 0376 8e3f 704a 5a3f 6e12 4f3f
000000b0: 0582 9d3f 975a 5b3f 359b 683f 4b98 8c3f

m_transform.0.9.running_var f4 [48]
1.3754776 0.5141217 0.39348617 1.3196588 0.66546714 1.626887 0.33589226 0.46712527
0.45703617 0.5485893 0.60146666 0.69718724 0.3066113 1.1115005 1.023983 1.5742196
0.40957803 0.34643197 0.18597771 0.3043647 0.4280365 0.5079774 0.39446557 0.35064158
0.86797905 0.6562917 0.9441071 0.29820582 0.4455625 0.84683394 1.196714 0.2595596
0.5636573 1.4823613 0.47366363 0.33908358 0.7843188 1.0152549 0.38014016 0.6709385
0.7306791 0.2377152 1.0953542 0.2478475 0.40700105 0.2856715 0.8237523 0.3602774
00000000: a60f b03f 7b9d 033f 0577 c93e 94ea a83f
00000010: 0e5c 2a3f d53d d03f 12fa ab3e 0b2b ef3e
00000020: a500 ea3e 5970 0c3f b8f9 193f dd7a 323f
00000030: 28fc 9c3e a645 8e3f e011 833f 0780 c93f
00000040: 36b4 d13e 885f b13e f170 3e3e b1d5 9b3e
00000050: 9a27 db3e cf0a 023f 64f7 c93e 4b87 b33e
00000060: e033 5e3f bc02 283f 01b1 713f 6fae 983e
00000070: c520 e43e 1cca 583f ed2d 993f ffe4 843e
00000080: d84b 103f 04be bd3f 0a84 f23e 5d9c ad3e
00000090: 1ec9 483f dff3 813f bba1 c23e a0c2 2b3f
000000a0: c90d 3b3f 9d6b 733e 9134 8c3f bccb 7d3e
000000b0: 7162 d03e 8943 923e 6ee1 523f 4876 b83e

m_transform.0.10.weight f4 [96, 48, 1, 1]
-0.12504713 0.082791895 -0.071286045 -0.00764389 0.020491596 -0.039403208 -0.11177856 0.08811961
-0.040601894 0.10661273 0.013426924 0.06281387 0.032933027 -0.09689357 0.13111736 0.07349826
-0.07328349 0.07315742 0.038981434 0.061073598 0.07594906 -0.090323165 0.06184114 -0.05525438
0.13214605 0.1429174 -0.1106615 -0.08766957 -0.0958941 0.045047794 -0.016081752 0.04361789
0.047615353 0.11615184 -0.11787825 0.08825693 -0.008884372 0.13318622 -0.032788895 -0.13937116
0.045223817 0.04428808 0.118526086 0.11775547 -0.11880487 0.071455084 -0.13944882 0.059678983
-0.12862912 0.013103015 0.022123672 -0.14279175 -0.06859201 -0.005805272 -0.14314744 -0.060541887
-0.07102057 -0.16306262 0.023009814 -0.096120454 -0.016920514 0.07678369 0.10454963 -0.10591297
-0.07305071 -0.15795155 -0.13668676 0.070538774 -0.020254087 -0.051501926 0.06820434 0.046890438
-0.041175365 -0.027976975 -0.13442227 0.019403342 -0.10061155 -0.07533601 -0.025483409 -0.040570356
0.13030568 -0.042443562 -0.018178489 0.12570707 -0.088003725 -0.13835005 0.053532954 0.06868582
-0.07721528 0.0007138198 -0.13143255 -0.13044636 -0.068024665 0.06956557 -0.011607788 -0.07972309
-0.07143897 0.036754318 -0.07585943 -0.09699693 -0.18386346 0.009324155 0.13474122 0.06310406
-0.11206217 -0.13028814 0.032634545 -0.0066034086 -0.1015747 -0.13896097 -0.114777304 0.037640203
-0.002227883 0.009679711 0.009209805 -0.115664475 0.10659361 0.0010774906 -0.037831035 -0.0064413925
0.040510144 -0.10379911 -0.03275875 0.085393764 -0.043251637 0.073929414 -0.05116446 -0.015494687
0.11479397 0.14138815 -0.04655092 0.111462556 -0.009907093 -0.12258275 -0.098321036 0.009777928
-0.12640622 -0.03427623 -0.1550275 0.13045494 0.121686704 -0.06991846 -0.0121864835 -0.022316167
-0.05195893 -0.1276772 -0.108452044 0.03400508 -0.16382325 0.027658848 -0.1461444 0.12707895
-0.08463753 -0.027133359 0.05735017 0.006299124 0.059372786 0.084296696 -0.10507748 -0.10528392
0.079877146 -0.07161901 -0.103524506 0.03301689 -0.107882135 0.06171699 -0.08039929 -0.055884287
-0.018699331 -0.06842179 0.08049261 0.04141231 -0.023124523 0.014793633 0.094076164 -0.09571818
-0.06713505 -0.12458881 0.13271801 -0.1416549 -0.00034389575 0.11027187 0.0745722 0.11853013
-0.11393567 -0.13367434 -0.035648588 0.12055401 0.13289277 -0.053903747 0.003220006 0.12270697
-0.101152346 -0.12518449 0.09675728 0.123250544 -0.016825765 0.015227741 -0.084350154 0.09973497
-0.0039853933 -0.03754968 -0.014080636 -0.08152584 0.02403704 -0.15978374 0.13674647 -0.0096669365
0.12094775 0.043964982 -0.037733972 -0.101949476 -0.10620862 -0.046146438 0.0041242475 0.01831666
0.05363289 -0.06814047 0.020282336 -0.060963236 0.10682325 -0.108404055 0.052411105 0.030532746
0.065680616 -0.12073049 -0.05414914 -0.01301959 0.07561166 -0.0413763 -0.07692499 -0.0371396
0.09498446 0.005450842 0.12077892 0.08780244 0.14136934 -0.10761827 -0.047237173 0.051501118
-0.034037285 -0.03038966 -0.079306036 -0.04144604 0.12528081 -0.12211111 -0.08427781 0.0554832
0.007501559 -0.1318237 0.11804441 -0.057239756 0.060459882 0.036697723 -0.0144207915 0.054483257
00000000: 5b0c 00be cc8e a93d 6bfe 91bd 9979 fabb
00000010: fedd a73c 4265 21bd 28ec e4bd 0e78 b43d
00000020: 2c4e 26bd c657 da3d 9afc 5b3c 8fa4 803d
00000030: c8e4 063d 2370 c6bd a143 063e 4186 963d
00000040: a815 96bd 8fd3 953d ffaa 1f3d 4f28 7a3d
00000050: 2e8b 9b3d 5afb b8bd 234d 7d3d 6b52 62bd
00000060: 4b51 073e f058 123e 7fa2 e2bd 1b8c b3bd
00000070: 2064 c4bd 0984 383d e1bd 83bc aca8 323d
00000080: 5108 433d 04e1 ed3d 276a f1bd 0dc0 b43d
00000090: c28f 11bc f861 083e a64d 06bd 50b7 0ebe
000000a0: 9c3c 393d 6b67 353d cebd f23d c829 f13d
000000b0: f84f f3bd 0b57 923d accb 0ebe f371 743d
000000c0: 5ab7 03be 07ae 563c b43c b53c 0038 12be
000000d0: f879 8cbd 273a bebb 3e95 12be c5fa 77bd
000000e0: 3c73 91bd e3f9 26be 147f bc3c cdda c4bd
000000f0: e49c 8abc c440 9d3d 1e1e d63d e6e8 d8bd
00000100: 9c9b 95bd 0dbe 21be 9df7 0bbe a276 903d
00000110: e6eb a5bc aff3 52bd b8ae 8b3d 3010 403d
00000120: 80a7 28bd f82f e5bc fea5 09be c2f3 9e3c
00000130: 6e0d cebd c449 9abd 95c2 d0bc 1a2d 26bd
00000140: da6e 053e 4dd9 2dbd 0eeb 94bc 5bb9 003e
00000150: 4c3b b4bd a3ab 0dbe 5f45 5b3d 27ab 8c3d
00000160: 0b23 9ebd a31f 3b3a 4196 06be bb93 05be
00000170: 8450 8bbd 6578 8e3d 972e 3ebc dc45 a3bd
00000180: 984e 92bd b28b 163d 305c 9bbd 54a6 c6bd
00000190: b446 3cbe 57c4 183c 9af9 093e b43c 813d
000001a0: da80 e5bd 416a 05be cdab 053d 6861 d8bb
000001b0: 6506 d0bd c94b 0ebe 5d10 ebbd 9d2c 1a3d
000001c0: ad01 12bb a797 1e3c b9e4 163c 7fe1 ecbd
000001d0: c04d da3d 963a 8d3a b7f4 1abd 5112 d3bb
000001e0: f7ed 253d a194 d4bd 0a2e 06bd ede2 ae3d
000001f0: a128 31bd 4e68 973d d391 51bd 6ddd 7dbc
00000200: 1a19 eb3d 0ec8 103e 2dac 3ebd 7b46 e43d
00000210: 5c51 22bc aa0c fbbd 8a5c c9bd 9a33 203c
00000220: a270 01be 3b65 0cbd 87bf 1ebe fb95 053e
00000230: e136 f93d 6931 8fbd d1a9 47bc 65d0 b6bc
00000240: e3d2 54bd d0bd 02be 1b1c debd e948 0b3d
00000250: 48c1 27be cf94 e23c e1a6 15be fc20 023e
00000260: 7156 adbd c746 debc 03e8 6a3d e268 ce3b
00000270: e130 733d bfa3 ac3d dd32 d7bd 199f d7bd
00000280: a196 a33d fdac 92bd a804 d4bd b83c 073d
00000290: 4ff1 dcbd f4ca 7c3d 62a8 a4bd ece6 64bd
000002a0: 572f 99bc b920 8cbd 4fd9 a43d f49f 293d
000002b0: a46f bdbc fe60 723c 01ab c03d e507 c4bd
000002c0: 1a7e 89bd 6b28 ffbd 3be7 073e fb0d 11be
000002d0: e84c b4b9 38d6 e13d 4fb9 983d edbf f23d
000002e0: 1b57 e9bd ede1 08be 4104 12bd 05e5 f63d
000002f0: 0b15 083e 2dca 5cbd bc06 533b cb4d fb3d
00000300: f628 cfbd 5d30 00be ae28 c63d c86a fc3d
00000310: 30d6 89bc c67d 793c c6bf acbd d941 cc3d
00000320: e797 82bb b1cd 19bd 78b2 66bc 05f7 a6bd
00000330: 54e9 c43c 599e 23be 4407 0c3e 1262 1ebc
00000340: 74b3 f73d a014 343d f08e 1abd e3ca d0bd
00000350: e883 d9bd 0c04 3dbd b224 873b d20c 963c
00000360: 29ae 5b3d 3b8d 8bbd 2427 a63c 96b4 79bd
00000370: 26c6 da3d f202 debd 07ad 563d cf1f fa3c
00000380: 8f83 863d 8c41 f7bd 7dcb 5dbd 1e50 55bc
00000390: 49da 9a3d 327a 29bd d98a 9dbd b11f 18bd
000003a0: 3687 c23d fa9c b23b f05a f73d c4d1 b33d
000003b0: 20c3 103e f866 dcbd c47b 41bd d6f2 523d
000003c0: ae6a 0bbd bcf3 f8bc 346b a2bd 53c3 29bd
000003d0: 9d49 003e 6415 fabd d899 acbd 5a42 633d
000003e0: a3cf f53b cbfc 06be 45c1 f13d 3c74 6abd
000003f0: c8a4 773d 5a50 163d 2f45 6cbc d629 5f3d

m_transform.0.10.bias f4 [96]
-0.107211806 0.086890645 -0.087926984 0.04579277 0.056574397 -0.04059316 0.123482235 -0.016892066
0.097394474 0.02742697 -0.15605824 -0.052689444 0.07103567 -0.12640354 0.1402482 0.031791233
-0.14530934 0.08483696 0.09438538 0.06073686 -0.11205742 0.04631645 -0.09198714 0.0372599
-0.06192584 0.05755196 -0.055636678 -0.07425755 -0.013203507 -0.038641542 0.096288554 0.054722637
-0.08897813 0.10646764 -0.0036580397 -0.17189115 0.085331365 -0.09218396 0.0018490704 -0.020056846
0.025476519 -0.007057242 -0.10750061 0.12748185 -0.0007552797 0.018012453 -0.06901207 0.05385985
-0.073455855 0.036991037 0.0871075 0.064407915 -0.17466733 0.053292256 0.046287805 -0.05237395
-0.13467194 -0.00071588095 0.06571563 0.09581063 0.09717264 0.090777084 -0.06697531 -0.027203685
-0.04100134 -0.020635301 0.05172991 0.124186 -0.08462244 0.07991188 0.09788537 0.1255705
-0.09685875 -0.06551948 -0.010990545 -0.045354262 0.124187976 0.0814037 -0.15487213 -0.059982847
0.042229086 0.09333469 -0.06634921 -0.015615767 -0.118282504 0.052796863 -0.05775642 0.080963515
0.019174926 -0.11821586 -0.07195461 0.040971786 0.08467449 -0.11797413 0.13011418 0.078689694
00000000: dd91 dbbd b9f3 b13d 1013 b4bd 3391 3b3d
00000010: 8eba 673d 0345 26bd 41e4 fc3d 3b61 8abc
00000020: c176 c73d 86ae e03c bbcd 1fbe e3d0 57bd
00000030: 267b 913d ee6f 01be 399d 0f3e 8637 023d
00000040: f9cb 14be 00bf ad3d 1f4d c13d 37c7 783d
00000050: 5c7e e5bd 51b6 3d3d c163 bcbd d69d 183d
00000060: f3a5 7dbd 9bbb 6b3d 49e3 63bd 5814 98bd
00000070: 8653 58bc 9846 1ebd ef32 c53d d824 603d
00000080: 2a3a b6bd b50b da3d b9bb 6fbb 3c04 30be
00000090: 36c2 ae3d f2ca bcbd 825c f23a 414e a4bc
000000a0: 22b4 d03c 7040 e7bb 4829 dcbd 9a8a 023e
000000b0: f6fd 45ba da8e 933c 3356 8dbd 259c 5c3d
000000c0: 0670 96bd ea83 173d 6b65 b23d 4ce8 833d
000000d0: fedb 32be fb48 5a3d 4898 3d3d 1186 56bd
000000e0: 71e7 09be f5a9 3bba eb95 863d 5d38 c43d
000000f0: 7302 c73d 56e9 b93d 5a2a 89bd 43da debc
00000100: 05f1 27bd 5d0b a9bc bee2 533d 3b55 fe3d
00000110: 884e adbd d7a8 a33d 2078 c83d 8e95 003e
00000120: e15d c6bd 142f 86bd b011 34bc 64c5 39bd
00000130: 4456 fe3d fcb6 a63d cd96 1ebe 93b0 75bd
00000140: 68f8 2c3d 4226 bf3d 18e2 87bd 46d9 7fbc
00000150: 193e f2bd 8641 583d ff91 6cbd 33d0 a53d
00000160: bc14 9d3c 281b f2bd f05c 93bd 08d2 273d
00000170: d269 ad3d 6c9c f1bd a73c 053e 1028 a13d

m_transform.0.12.running_mean f4 [48]
0.278266 0.58596706 0.50716287 0.37545997 0.18883467 0.4668851 0.3217033 0.2857778
0.31251866 0.40439585 0.25970194 0.29877254 0.3167617 0.42103127 0.33695513 0.24775077
0.20783928 0.23446527 0.3257247 0.694235 0.26481763 0.6721189 0.3295765 0.5210601
0.282589 0.34135512 0.28988054 0.23558302 0.41464588 0.3240973 0.3975591 0.3397456
0.37005603 0.38736594 0.4525487 0.31820607 0.24637498 0.50790435 0.31214392 0.38918978
0.29284894 0.25932476 0.553417 0.39041036 0.46089268 0.3066765 0.4026874 0.40103105
00000000: e278 8e3e f001 163f 6dd5 013f 4a3c c03e
00000010: e05d 413e 900b ef3e 4cb6 a43e 7851 923e
00000020: 7202 a03e f90c cf3e a7f7 843e b7f8 983e
00000030: 972e a23e 6991 d73e 6285 ac3e 61b2 7d3e
00000040: d2d3 543e aa17 703e 63c5 a63e 63b9 313f
00000050: 2d96 873e fc0f 2c3f 40be a83e 3264 053f
00000060: 81af 903e 19c6 ae3e 396b 943e ad3c 713e
00000070: 774c d43e 15f0 a53e de8c cb3e 23f3 ad3e
00000080: fc77 bd3e d454 c63e 77b4 e73e e8eb a23e
00000090: b949 7c3e 0506 023f 54d1 9f3e e243 c73e
000000a0: 4cf0 953e 37c6 843e bdac 0d3f dee3 c73e
000000b0: 20fa eb3e b404 9d3e 0b2d ce3e f153 cd3e

m_transform.0.12.running_var f4 [48]
0.17048372 0.22961812 0.16061032 0.38295272 0.08231979 0.22868466 0.22410755 0.15345933
0.25340772 0.26791885 0.172319 0.23873967 0.2628667 0.19319108 0.10419342 0.2023641
0.10324979 0.23377083 0.2961211 0.19206311 0.17086338 0.26953712 0.26474258 0.18234855
0.1513678 0.15281874 0.4568652 0.19763897 0.28056902 0.49917382 0.20175074 0.17566787
0.13111292 0.13413128 0.29486766 0.32877252 0.3650843 0.23346397 0.18448417 0.14482877
0.3349178 0.22447123 0.5914508 0.21675497 0.17498936 0.33760783 0.25816402 0.24358058
00000000: 4993 2e3e 0321 6b3e 0877 243e 6112 c43e
00000010: 4797 a83d 502c 6a3e 737c 653e 7124 1d3e
00000020: a8be 813e a92c 893e 6474 303e 2c78 743e
00000030: 7796 863e e2d3 453e 5c63 d53d 8938 4f3e
00000040: a074 d33d 9f61 6f3e 2f9d 973e 31ac 443e
00000050: cff6 2e3e c500 8a3e 578c 873e 94b9 3a3e
00000060: 2900 1b3e 847c 1c3e 3cea e93e df61 4a3e
00000070: bea6 8f3e b693 ff3e bf97 4e3e 47e2 333e
00000080: 7742 063e b659 093e e5f8 963e df54 a83e
00000090: 54ec ba3e 2e11 6f3e 6be9 3c3e fe4d 143e
000000a0: 597a ab3e c9db 653e 5269 173f 04f5 5d3e
000000b0: 6930 333e efda ac3e 132e 843e 306d 793e

m_transform.0.13.weight f4 [128, 48, 3, 3]
0.021207316 -0.008721688 0.014872906 -0.016499143 0.0025085264 -0.019481122 -0.011929771 0.019557316
-0.044323318 -0.0021356463 -0.04390888 0.01639127 0.0022453303 0.037994076 -0.011992994 0.027399585
0.033119652 0.033171147 -0.029104091 0.012642888 -0.048991684 -0.0031984975 0.017568 -0.042500846
-0.039807793 0.048780244 0.021675799 0.037243072 0.023731751 -0.02392534 0.029624015 0.037006028
0.036159743 -0.014903854 -0.013656991 -0.0201416 -0.018599123 0.030838242 0.021693971 0.02296165
-0.00649251 0.031871118 -0.007586055 0.015359477 -0.010069576 -0.023147985 0.036179595 0.00737893
0.014080669 0.060755122 0.042661145 -0.030152649 -0.012964682 -0.0056187185 0.042556237 0.049514677
0.033654902 -0.023467088 -0.0042645866 0.02966909 -0.03249908 0.021787928 -0.0028335329 0.040816657
-0.0056919246 0.018884072 0.016051931 -0.011972811 0.023467787 -0.03154766 0.022016706 0.015034067
-0.0061006146 -0.0146912085 0.028238287 -0.052477084 -0.040113777 0.026380377 -0.034842376 0.02190653
0.058110286 -0.04161237 0.0386959 -0.0009103817 0.039854676 0.0057266043 0.07846911 0.025101524
0.03336047 -0.020477898 -0.04746652 0.032142464 -0.049052455 -0.006067179 -0.047161847 -0.022492742
-0.03707648 -0.029532248 0.033777863 0.011504928 -0.04129193 0.06358991 -0.029788366 -0.036827743
-0.009399283 0.018670803 -0.016950537 0.025947852 0.02187709 0.015776785 -0.025231805 -0.009233748
0.02059111 -0.031606827 0.037209574 0.02335043 -0.010768924 0.011740728 -0.003494032 0.011605908
0.012598462 -0.015130417 -0.021150494 -0.018414415 0.051612273 0.0046115825 0.001523663 0.0344072
0.020842573 -0.024777612 0.03069354 0.024285398 -0.039966453 0.02334801 -0.012279174 0.03033042
0.015781721 -0.032716524 -0.052672576 0.019475166 0.024109082 0.0069091027 -0.006000106 0.05146339
0.011544383 -0.04482427 0.011628704 -0.011143488 -0.005356228 0.0045404965 -0.020770226 -0.0059559117
-0.042879526 0.0019398973 -0.0064791194 0.019416498 -0.0077982126 0.05346535 0.054458555 0.039732397
0.0082352795 -0.020988217 -0.028942099 0.0088921655 -0.012967382 0.021009697 0.021978104 0.003434103
-0.020920098 -0.026979413 0.07153701 -0.008879834 -0.005331755 0.019541187 0.034196988 -0.009398433
0.006211213 0.02316391 0.0092978515 0.020165928 0.017357245 0.020967115 0.034006566 0.014056231
-0.029668301 -0.029520705 -0.007931278 0.04587411 -0.0029528511 -0.0036444317 0.013838241 0.006289898
-0.016591122 -0.0073010684 0.015904283 -0.026625926 -0.02712195 -0.044865638 0.030239847 -0.03218721
0.014497984 -0.009023278 -0.007985211 -0.020586042 -0.011400574 0.016638827 0.019596031 -0.03523261
-0.039134018 -0.0005999753 0.04336881 -0.021115838 -0.0041079386 -0.027738806 0.023214733 0.020959975
0.026011456 0.006673003 -0.02157043 0.02506658 0.023576716 -0.011781461 -0.013128377 0.022728164
-0.054903105 -0.015040235 0.039163336 -0.0024982966 -0.033787504 0.058240652 -0.01985472 0.019152256
-0.024490295 -0.04094778 0.0037390303 0.021445526 0.041073248 0.028351296 -0.042879954 -0.02008855
-0.016339734 -0.006659222 0.0077309934 0.034773856 0.0034307765 0.030219967 -0.0016243357 -0.044643335
0.031965546 -0.048632715 -0.013117921 -0.0064201634 -0.042750694 0.029963106 -0.020516772 -0.019047707
00000000: f7ba ad3c 69e5 0ebc 7dad 733c 3629 87bc
00000010: 1766 243b e096 9fbc 1675 43bc aa36 a03c
00000020: 5e8c 35bd 33f6 0bbb ccd9 33bd fc46 863c
00000030: 6426 133b ad9f 1b3d 437e 44bc 1875 e03c
00000040: 79a8 073d 78de 073d b46b eebc 1e24 4f3c
00000050: 81ab 48bd e29d 51bb c4ea 8f3c 5e15 2ebd
00000060: 7f0d 23bd cbcd 473d 7291 b13c 318c 183d
00000070: 1769 c23c 13ff c3bc 10ae f23c a293 173d
00000080: 3d1c 143d 4b2f 74bc 92c1 5fbc ffff a4bc
00000090: 305d 98bc 7ba0 fc3c 8eb7 b13c 121a bc3c
000000a0: 1fbf d4bb 4a8b 023d 7194 f8bb 51a6 7b3c
000000b0: ddfa 24bc d8a0 bdbc 0e31 143d f4ca f13b
000000c0: 9bb2 663c 5dda 783d 74bd 2e3d b002 f7bc
000000d0: d169 54bc 3a1d b8bb 734f 2e3d e7cf 4a3d
000000e0: b9d9 093d 0d3e c0bc f2bd 8bbb 970c f33c
000000f0: c11d 05bd 997c b23c cbb2 39bb 5e2f 273d
00000100: 5383 babb c5b2 9a3c 577f 833c 9c29 44bc
00000110: 843f c03c 1e38 01bd 615c b43c 7351 763c
00000120: aae7 c7bb 65b3 70bc fb53 e73c 36f2 56bd
00000130: 584e 24bd a91b d83c e1b6 0ebd 5375 b33c
00000140: 0d05 6e3d bc71 2abd 987f 1e3d afa6 6eba
00000150: a83e 233d 3da6 bb3b 6ab4 a03d b6a1 cd3c
00000160: fda4 083d 44c1 a7bc 416c 42bd d1a7 033d
00000170: 3aeb 48bd 30cf c6bb c82c 41bd b342 b8bc
00000180: 82dd 17bd 9ded f1bc a85a 0a3d 2a7f 3c3c
00000190: ba21 29bd 6d3b 823d bb06 f4bc b0d8 16bd
000001a0: 73ff 19bc 83f3 983c dadb 8abc 9790 d43c
000001b0: 9537 b33c 513e 813c eeb2 cebc 2549 17bc
000001c0: b0ae a83c 2976 01bd 1169 183d 6749 bf3c
000001d0: 2470 30bc 2f5c 403c 21fc 64bb b526 3e3c
000001e0: c869 4e3c 92e5 77bc cd43 adbc d4d9 96bc
000001f0: 6467 533d c21c 973b a6b5 c73a 90ee 0c3d
00000200: 0bbe aa3c 6bfa cabc 0571 fb3c 2cf2 c63c
00000210: ddb3 23bd 5344 bf3c 972e 49bc 8077 f83c
00000220: ab48 813c c301 06bd 33bf 57bd 628a 9f3c
00000230: 6980 c53c c165 e23b 8a9c c4bb 47cb 523d
00000240: a724 3d3c a799 37bd 5286 3e3c 2d93 36bc
00000250: 4c83 afbb 72c8 943b 5226 aabc cf29 c3bb
00000260: 71a2 2fbd 2744 fe3a cb4e d4bb 590f 9f3c
00000270: 2688 ffbb 7cfe 5a3d ef0f 5f3d 70be 223d
00000280: 44ed 063c 7bef abbc fb17 edbc 72b0 113c
00000290: 2475 54bc 871c ac3c 6d0b b43c b00e 613b
000002a0: a060 abbc ee03 ddbc ff81 923d b97c 11bc
000002b0: 01b6 aebb d714 a03c 2412 0c3d e3fb 19bc
000002c0: 6e87 cb3b 3dc2 bd3c 0456 183c 0433 a53c
000002d0: c830 8e3c 3ac3 ab3c 784a 0b3d 1b4c 663c
000002e0: f00a f3bc 68d5 f1bc 31f2 01bc 7ee6 3b3d
000002f0: 9f84 41bb 6bd7 6ebb cab9 623c 7d1b ce3b
00000300: 1bea 87bc cd3d efbb b349 823c 9d1e dabc
00000310: da2e debc 08c5 37bd 8eb9 f73c bcd6 03bd
00000320: f488 6d3c 5fd6 13bc 67d4 02bc 0fa4 a8bc
00000330: 79c9 3abc 264e 883c db87 a03c 1250 10bd
00000340: fe4a 20bd a947 1dba 7ea3 313d 1ffb acbc
00000350: e39b 86bb 7e3c e3bc d32c be3c 41b4 ab3c
00000360: fa15 d53c 35a9 da3b 78b4 b0bc 6e58 cd3c
00000370: f523 c13c 0707 41bc 6718 57bc 6a30 ba3c
00000380: 14e2 60bd 516b 76bc bc69 203d 76ba 23bb
00000390: c464 0abd c08d 6e3d 5ea6 a2bc 31e5 9c3c
000003a0: df9f c8bc dcb8 27bd 850a 753b 87ae af3c
000003b0: 6c3c 283d fa40 e83c e4a2 2fbd be90 a4bc
000003c0: e8da 85bc 9a35 dabb 4654 fd3b 086f 0e3d
000003d0: e1d6 603b dd8f f73c a9e7 d4ba eedb 36bd
000003e0: 4eee 023d 1933 47bd 8cec 56bc 3c60 d2bb
000003f0: 5a1b 2fbd 3075 f53c ca12 a8bc f009 9cbc
